…
el Detailed Summary:
--------------------------------------------------
=========================================================================================================
Layer (type:depth-idx)                                  Output Shape              Param #
=========================================================================================================
DataParallel                                            --                        --
├─UGATIT: 1-1                                           --                        --
│    └─ResnetGenerator: 2-1                             [1, 3, 256, 256]          --
│    │    └─Sequential: 3-1                             [1, 256, 64, 64]          5,096,640
│    │    └─Linear: 3-2                                 [1, 1]                    256
│    │    └─Linear: 3-3                                 [1, 1]                    256
│    │    └─Conv2d: 3-4                                 [1, 256, 64, 64]          131,328
│    │    └─ReLU: 3-5                                   [1, 256, 64, 64]          --
│    │    └─Sequential: 3-6                             [1, 256]                  131,072
│    │    └─Linear: 3-7                                 [1, 256]                  65,536
│    │    └─Linear: 3-8                                 [1, 256]                  65,536
│    │    └─ResnetAdaILNBlock: 3-9                      [1, 256, 64, 64]          1,180,160
│    │    └─ResnetAdaILNBlock: 3-10                     [1, 256, 64, 64]          1,180,160
│    │    └─ResnetAdaILNBlock: 3-11                     [1, 256, 64, 64]          1,180,160
│    │    └─ResnetAdaILNBlock: 3-12                     [1, 256, 64, 64]          1,180,160
│    │    └─Sequential: 3-13                            [1, 3, 256, 256]          378,624
│    └─ResnetGenerator: 2-2                             [1, 3, 256, 256]          --
│    │    └─Sequential: 3-14                            [1, 256, 64, 64]          5,096,640
│    │    └─Linear: 3-15                                [1, 1]                    256
│    │    └─Linear: 3-16                                [1, 1]                    256
│    │    └─Conv2d: 3-17                                [1, 256, 64, 64]          131,328
│    │    └─ReLU: 3-18                                  [1, 256, 64, 64]          --
│    │    └─Sequential: 3-19                            [1, 256]                  131,072
│    │    └─Linear: 3-20                                [1, 256]                  65,536
│    │    └─Linear: 3-21                                [1, 256]                  65,536
│    │    └─ResnetAdaILNBlock: 3-22                     [1, 256, 64, 64]          1,180,160
│    │    └─ResnetAdaILNBlock: 3-23                     [1, 256, 64, 64]          1,180,160
│    │    └─ResnetAdaILNBlock: 3-24                     [1, 256, 64, 64]          1,180,160
│    │    └─ResnetAdaILNBlock: 3-25                     [1, 256, 64, 64]          1,180,160
│    │    └─Sequential: 3-26                            [1, 3, 256, 256]          378,624
│    └─Discriminator: 2-3                               [1, 1, 6, 6]              --
│    │    └─Sequential: 3-27                            [1, 2048, 7, 7]           44,702,656
│    │    └─Linear: 3-28                                [1, 1]                    2,048
│    │    └─Linear: 3-29                                [1, 1]                    2,048
│    │    └─Conv2d: 3-30                                [1, 2048, 7, 7]           8,390,656
│    │    └─LeakyReLU: 3-31                             [1, 2048, 7, 7]           --
│    │    └─ReflectionPad2d: 3-32                       [1, 2048, 9, 9]           --
│    │    └─Conv2d: 3-33                                [1, 1, 6, 6]              32,768
│    └─Discriminator: 2-4                               [1, 1, 30, 30]            --
│    │    └─Sequential: 3-34                            [1, 512, 31, 31]          2,756,544
│    │    └─Linear: 3-35                                [1, 1]                    512
│    │    └─Linear: 3-36                                [1, 1]                    512
│    │    └─Conv2d: 3-37                                [1, 512, 31, 31]          524,800
│    │    └─LeakyReLU: 3-38                             [1, 512, 31, 31]          --
│    │    └─ReflectionPad2d: 3-39                       [1, 512, 33, 33]          --
│    │    └─Conv2d: 3-40                                [1, 1, 30, 30]            8,192
│    └─Discriminator: 2-5                               [1, 1, 6, 6]              --
│    │    └─Sequential: 3-41                            [1, 2048, 7, 7]           44,702,656
│    │    └─Linear: 3-42                                [1, 1]                    2,048
│    │    └─Linear: 3-43                                [1, 1]                    2,048
│    │    └─Conv2d: 3-44                                [1, 2048, 7, 7]           8,390,656
│    │    └─LeakyReLU: 3-45                             [1, 2048, 7, 7]           --
│    │    └─ReflectionPad2d: 3-46                       [1, 2048, 9, 9]           --
│    │    └─Conv2d: 3-47                                [1, 1, 6, 6]              32,768
│    └─Discriminator: 2-6                               [1, 1, 30, 30]            --
│    │    └─Sequential: 3-48                            [1, 512, 31, 31]          2,756,544
│    │    └─Linear: 3-49                                [1, 1]                    512
│    │    └─Linear: 3-50                                [1, 1]                    512
│    │    └─Conv2d: 3-51                                [1, 512, 31, 31]          524,800
│    │    └─LeakyReLU: 3-52                             [1, 512, 31, 31]          --
│    │    └─ReflectionPad2d: 3-53                       [1, 512, 33, 33]          --
│    │    └─Conv2d: 3-54                                [1, 1, 30, 30]            8,192
│    └─Discriminator: 2-7                               [1, 1, 6, 6]              (recursive)
│    │    └─Sequential: 3-55                            [1, 2048, 7, 7]           (recursive)
│    │    └─Linear: 3-56                                [1, 1]                    (recursive)
│    │    └─Linear: 3-57                                [1, 1]                    (recursive)
│    │    └─Conv2d: 3-58                                [1, 2048, 7, 7]           (recursive)
│    │    └─LeakyReLU: 3-59                             [1, 2048, 7, 7]           --
│    │    └─ReflectionPad2d: 3-60                       [1, 2048, 9, 9]           --
│    │    └─Conv2d: 3-61                                [1, 1, 6, 6]              (recursive)
│    └─Discriminator: 2-8                               [1, 1, 30, 30]            (recursive)
│    │    └─Sequential: 3-62                            [1, 512, 31, 31]          (recursive)
│    │    └─Linear: 3-63                                [1, 1]                    (recursive)
│    │    └─Linear: 3-64                                [1, 1]                    (recursive)
│    │    └─Conv2d: 3-65                                [1, 512, 31, 31]          (recursive)
│    │    └─LeakyReLU: 3-66                             [1, 512, 31, 31]          --
│    │    └─ReflectionPad2d: 3-67                       [1, 512, 33, 33]          --
│    │    └─Conv2d: 3-68                                [1, 1, 30, 30]            (recursive)
│    └─Discriminator: 2-9                               [1, 1, 6, 6]              (recursive)
│    │    └─Sequential: 3-69                            [1, 2048, 7, 7]           (recursive)
│    │    └─Linear: 3-70                                [1, 1]                    (recursive)
│    │    └─Linear: 3-71                                [1, 1]                    (recursive)
│    │    └─Conv2d: 3-72                                [1, 2048, 7, 7]           (recursive)
│    │    └─LeakyReLU: 3-73                             [1, 2048, 7, 7]           --
│    │    └─ReflectionPad2d: 3-74                       [1, 2048, 9, 9]           --
│    │    └─Conv2d: 3-75                                [1, 1, 6, 6]              (recursive)
│    └─Discriminator: 2-10                              [1, 1, 30, 30]            (recursive)
│    │    └─Sequential: 3-76                            [1, 512, 31, 31]          (recursive)
│    │    └─Linear: 3-77                                [1, 1]                    (recursive)
│    │    └─Linear: 3-78                                [1, 1]                    (recursive)
│    │    └─Conv2d: 3-79                                [1, 512, 31, 31]          (recursive)
│    │    └─LeakyReLU: 3-80                             [1, 512, 31, 31]          --
│    │    └─ReflectionPad2d: 3-81                       [1, 512, 33, 33]          --
│    │    └─Conv2d: 3-82                                [1, 1, 30, 30]            (recursive)
│    └─MSELoss: 2-11                                    --                        --
│    └─MSELoss: 2-12                                    --                        --
│    └─MSELoss: 2-13                                    --                        --
│    └─MSELoss: 2-14                                    --                        --
…
│    │    └─Sequential: 3-160                           [1, 3, 256, 256]          (recursive)
│    └─Discriminator: 2-33                              [1, 1, 6, 6]              (recursive)
│    │    └─Sequential: 3-161                           [1, 2048, 7, 7]           (recursive)
│    │    └─Linear: 3-162                               [1, 1]                    (recursive)
│    │    └─Linear: 3-163                               [1, 1]                    (recursive)
│    │    └─Conv2d: 3-164                               [1, 2048, 7, 7]           (recursive)
│    │    └─LeakyReLU: 3-165                            [1, 2048, 7, 7]           --
│    │    └─ReflectionPad2d: 3-166                      [1, 2048, 9, 9]           --
│    │    └─Conv2d: 3-167                               [1, 1, 6, 6]              (recursive)
│    └─Discriminator: 2-34                              [1, 1, 30, 30]            (recursive)
│    │    └─Sequential: 3-168                           [1, 512, 31, 31]          (recursive)
│    │    └─Linear: 3-169                               [1, 1]                    (recursive)
│    │    └─Linear: 3-170                               [1, 1]                    (recursive)
│    │    └─Conv2d: 3-171                               [1, 512, 31, 31]          (recursive)
│    │    └─LeakyReLU: 3-172                            [1, 512, 31, 31]          --
│    │    └─ReflectionPad2d: 3-173                      [1, 512, 33, 33]          --
│    │    └─Conv2d: 3-174                               [1, 1, 30, 30]            (recursive)
│    └─Discriminator: 2-35                              [1, 1, 6, 6]              (recursive)
│    │    └─Sequential: 3-175                           [1, 2048, 7, 7]           (recursive)
│    │    └─Linear: 3-176                               [1, 1]                    (recursive)
│    │    └─Linear: 3-177                               [1, 1]                    (recursive)
│    │    └─Conv2d: 3-178                               [1, 2048, 7, 7]           (recursive)
│    │    └─LeakyReLU: 3-179                            [1, 2048, 7, 7]           --
│    │    └─ReflectionPad2d: 3-180                      [1, 2048, 9, 9]           --
│    │    └─Conv2d: 3-181                               [1, 1, 6, 6]              (recursive)
│    └─Discriminator: 2-36                              [1, 1, 30, 30]            (recursive)
│    │    └─Sequential: 3-182                           [1, 512, 31, 31]          (recursive)
│    │    └─Linear: 3-183                               [1, 1]                    (recursive)
│    │    └─Linear: 3-184                               [1, 1]                    (recursive)
│    │    └─Conv2d: 3-185                               [1, 512, 31, 31]          (recursive)
│    │    └─LeakyReLU: 3-186                            [1, 512, 31, 31]          --
│    │    └─ReflectionPad2d: 3-187                      [1, 512, 33, 33]          --
│    │    └─Conv2d: 3-188                               [1, 1, 30, 30]            (recursive)
│    └─MSELoss: 2-37                                    --                        --
│    └─MSELoss: 2-38                                    --                        --
│    └─MSELoss: 2-39                                    --                        --
│    └─MSELoss: 2-40                                    --                        --
…
